models/LSTM/lstm_qr_best_20250629_0058.pt (torch, 82393 bytes, 5 tensors)

lstm.weight_ih_l0 f4 [256, 12]
000000 b2 d1 d3 bd 46 5d 51 bd 94 1b 04 3e 83 14 f8 bc
       -0.103427306 -0.051114343 0.12901145 -0.030283218
000010 7a 5e 29 bb d0 4d dc 3b 27 4b 12 3d ae 44 59 3d
       -0.0025843666 0.006723143 0.035716202 0.053044014
000020 3c e8 26 3d 63 07 ed bd d7 71 40 3c 5a 2b 3f be
       0.04074882 -0.115736745 0.0117458915 -0.18668881
000030 5a 71 28 be f6 4f e2 3d 17 76 b7 3d e2 86 c3 bc
       -0.1644949 0.110504076 0.08958071 -0.023868028
000040 c1 d3 f1 3d 5f 2a 11 3d 44 15 2b be a4 7d 6b 3d
       0.11807967 0.0354408 -0.16707331 0.057492867
000050 55 6d fb bc c1 d4 ea bd 6f a9 c8 bb e2 68 02 3d
       -0.030691782 -0.11466361 -0.0061237137 0.031838305
000060 4e d6 b5 3b d9 03 81 3d 2f 15 f1 bb fb 1b 61 3d
       0.0055492288 0.06299562 -0.0073572616 0.054958325
000070 bd 0a 0b bd a0 fd 38 3c ec 8b e3 ba 9e d3 2d be
       -0.033945788 0.011290938 -0.0017360426 -0.16975257
000080 8d 99 35 bd db c4 b2 bd a5 72 df 3d 7d 56 ca 3d
       -0.04433589 -0.087289535 0.109105386 0.098797776
000090 3b 8d 8f 3b 47 0b 21 3e db e6 33 3c 7b cf 7c 3d
       0.0043808497 0.15726958 0.010980333 0.061721306
0000a0 e5 65 ee 3d cc 0b 50 bd 82 78 e7 bd 71 29 ee bd
       0.116405286 -0.0507925 -0.11302282 -0.11628998
0000b0 4a a4 1b be 22 5c 01 bd d4 cc c7 3d 70 13 96 3c
       -0.1519939 -0.031582005 0.09755865 0.018319815
0000c0 a4 33 71 bd 94 f5 d0 3c c0 08 f7 3d 29 c1 2d bc
       -0.05888714 0.025507726 0.12062216 -0.010605135
0000d0 0c b8 df 3d c8 4b c8 bd bc 4a a5 bd 35 6f 6e bd
       0.10923776 -0.09780079 -0.08070895 -0.058211524
0000e0 32 a1 e0 bd 0e ce 44 bd 61 1c 53 bc b7 46 a0 bd
       -0.109682456 -0.04804807 -0.012885184 -0.07825988
0000f0 1e bb f1 bd 7e 6b 75 bd 49 ba e8 3d 6f dd 0a bb
       -0.11803268 -0.059916966 0.11363656 -0.0021189114
000100 2e a9 ab bd 69 08 5b 3c 02 d2 88 3d 73 e9 e6 3d
       -0.08381878 0.013368704 0.06680681 0.11274996
000110 56 25 e3 bd 62 9d ee bd 7e 1d 5a 3d 22 0a 07 3d
       -0.11091106 -0.11651112 0.053250782 0.032968648
000120 78 8e 4d 3d 62 09 26 3e 6e 7b 4e bc ec 7d 28 bd
       0.050184697 0.16214517 -0.01260267 -0.041135713
000130 a8 cd f0 3c 98 6f 01 3e c9 32 d3 bd 4c 85 22 bc
       0.02939494 0.12640226 -0.10312421 -0.009919476
000140 d9 61 8e bd df 42 85 bd 3a 12 8f bd 0b d0 cd bd
       -0.06952257 -0.06506895 -0.06985898 -0.10049447
000150 b7 12 e1 bd 40 b1 92 bc 9d 15 d2 3d 46 f0 43 bd
       -0.10989898 -0.017906785 0.10258029 -0.047836564
000160 af 9f b1 bd be 1f 1a bd 8c af be bd 35 d8 e3 3c
       -0.08673035 -0.037627928 -0.09310827 0.027813056
000170 12 44 57 3c 3f a4 8e 3d aa 13 47 3d 19 2b 2b 3d
       0.013138788 0.06964921 0.048602737 0.041789148
000180 64 84 11 bd 48 87 1e 3e c2 77 7e bd fc 6e a7 3d
       -0.03552665 0.15481293 -0.06212593 0.081754655
000190 5c a1 04 3d 7e 23 1f bd be e3 25 3d 9e b3 8b 3d
       0.032380447 -0.038852207 0.040500395 0.06821369
0001a0 31 0e 8a b9 88 18 6a 3c 64 80 12 3e d2 1d 35 3d
       -0.00026331985 0.014288075 0.1430679 0.044217892
0001b0 6e 6f 39 bc 23 07 4f 3d f2 47 82 3d cf 84 ce bc
       -0.011318071 0.050543915 0.06361379 -0.025209812
0001c0 98 2c 55 3c 09 f4 7f bd a9 af 87 3d 62 07 70 3d
       0.01301112 -0.06248859 0.066253014 0.05860079
0001d0 5f 8c 05 3d c6 39 ae 3d 60 1f ca bd f7 ee 25 bd
       0.03260457 0.08507113 -0.098692656 -0.040511098
0001e0 1b 7d 7d 3d 5d da 5c bd b8 47 04 be 7c 30 be 3c
       0.061886888 -0.053919185 -0.12917984 0.023216479
0001f0 7b e7 07 3e 19 c9 9c bd 6a da a9 bd 67 ea 58 3d
       0.13271897 -0.07655544 -0.08293612 0.05295792
000200 46 db 54 bd e7 ef 83 3d e0 12 c4 3c 55 89 b7 bd
       -0.051966928 0.06442242 0.023934782 -0.08961741
000210 3f 3a ba 3d 18 74 5c 3b df 82 12 be 38 f1 d7 3d
       0.09093141 0.0033638533 -0.14307736 0.10544056
000220 8f 08 b3 bc 27 03 9e bd 33 33 10 bd 3a 90 79 3d
       -0.021854667 -0.07715445 -0.035205077 0.06092856
000230 59 e1 c0 bc ed f9 7a 3d 66 1b 1e 3d ca 33 21 bd
       -0.023544954 0.061273504 0.038600348 -0.03935603
000240 0d ee e8 3d fa c5 ea 3c aa 09 be bd e7 e3 c0 3c
       0.113735296 0.028658856 -0.09279187 0.023546172
000250 a4 d3 01 3e 31 35 fb 3d a8 b4 e1 bd 8c 47 76 3d
       0.1267839 0.12266005 -0.110207856 0.060126826
000260 ac 47 ec 3c 83 a3 8b 3d b7 9f b2 bd 7a 2f 4c 3d
       0.02884277 0.06818297 -0.087218694 0.049849965
000270 a9 57 78 bd 73 eb 2d 3c 40 49 c0 3c c5 c1 b1 bd
       -0.060630474 0.0106152175 0.023472428 -0.08679537
000280 a9 86 52 3d 32 48 01 3e ec f0 2c be 6a b9 e0 bc
       0.051397953 0.12625197 -0.1688878 -0.027432162
000290 50 d8 96 3d 41 42 97 bd e4 71 f8 bc 16 c1 1d 3d
       0.07365477 -0.07385684 -0.030327745 0.03851422
0002a0 55 0e 94 3d 4f 03 82 3d d7 a8 c2 bd 27 ec 03 3e
       0.07229296 0.06348287 -0.0950486 0.12883054
0002b0 ed 83 8e bd aa 4b 0d be 23 63 fe 3d 8f 0f f0 3c
       -0.069587566 -0.13798395 0.124212526 0.029304294
0002c0 37 13 f2 3b 49 12 b0 3d 13 f8 88 3d e7 9a 14 bd
       0.0073875445 0.085972376 0.066879414 -0.03628054
0002d0 ff 91 49 bd 7d 9b 97 bb cd cb 5b 3b c7 77 8a bd
       -0.0492115 -0.00462669 0.0033538223 -0.06761127
0002e0 50 8a 71 3c 20 77 06 3e 25 bc 71 bc 7e 0d 09 be
       0.014742449 0.1313138 -0.01475433 -0.13384053
0002f0 b6 0e 13 bd b5 ea c2 3c 46 77 9c 3c f7 00 be bc
       -0.0359027 0.023793558 0.019099843 -0.02319382
000300 97 4a a8 bd 64 15 6c bd 18 d3 fd 3d 98 a8 9e bd
       -0.08217352 -0.057637587 0.123937786 -0.077470005
000310 d6 49 88 3d b4 71 15 3e d0 dd b7 bd 7f 1c 10 bd
       0.06654708 0.14594156 -0.08977854 -0.035183426
000320 99 76 20 be ba 44 2c be 0f 3e d4 3d 75 21 4f 3d
       -0.15670241 -0.16823092 0.10363399 0.050569016
000330 3e 24 d8 3d 89 7b 4d bd de 2f c3 3d 7e 7e ad 3d
       0.10553788 -0.05016664 0.09530614 0.08471392
000340 fa 39 90 bd 8d 25 02 be 2d 92 06 3e 4c 6e 9f bd
       -0.07042308 -0.12709637 0.13141699 -0.07784709
000350 fb bb 17 bd 6d 66 98 bd f6 7f e0 bd 68 ad fe 3d
       -0.037044507 -0.07441411 -0.109619066 0.12435418
000360 ba 5a 81 3d 5b 5d fc 3c 4b cd 05 3c 98 fa ff 3d
       0.06316133 0.030806234 0.008166621 0.12498969
000370 f8 67 1c 3e ac b2 85 bd 32 4f 5b 3d 4c 2e 20 bd
       0.15274036 -0.065282196 0.053542323 -0.039106652
000380 f2 7e 8f bd 52 9f d7 bd 0d a7 94 3d 7f a2 d3 bd
       -0.07006635 -0.10528435 0.07258425 -0.10333728
000390 b3 2b 5e 3d 90 0b ae 3c 0b 26 09 be 09 4b aa 3d
       0.054240894 0.021245748 -0.13393418 0.08315093
0003a0 67 c9 ca 3b 71 e1 1e bd e9 af aa bd 7d dc 80 bd
       0.00618856 -0.038789216 -0.083343334 -0.06292055
0003b0 2b 8e f0 bd 17 ff a4 bd f7 f0 74 bc ff 4d 25 be
       -0.117458664 -0.08056467 -0.014950029 -0.16143034
0003c0 2e 02 ee bc 2e d0 d5 3d 55 f4 fd bc 85 29 af 3d
       -0.029053774 0.10440098 -0.031000296 0.08552841
0003d0 24 ca 02 be af 7c 23 bd 58 ee 97 3d a3 1b ce bd
       -0.12772423 -0.03991383 0.07418507 -0.10063865
0003e0 87 b2 09 bc 9d 8f 8e bd a3 ca bb 3d 16 ba 8e bd
       -0.008404381 -0.06960986 0.09169509 -0.06969087
0003f0 84 f5 b0 bd 7c 51 2e bd 06 3e ed 3c 8e 47 c6 3c
       -0.086405784 -0.04255818 0.02896024 0.024204042

lstm.weight_hh_l0 f4 [256, 64]
000000 1e 01 36 3c 38 06 e9 bc a8 f6 b7 3c 5c 10 d2 bd
       0.011108665 -0.028445348 0.022456482 -0.102570266
000010 70 78 1c bc e0 da 0e be 4a 44 71 bc 46 29 8c 3d
       -0.009550199 -0.13950682 -0.014725754 0.0684381
000020 36 96 a9 bd 95 f8 08 bd a5 9f b1 3b c1 5d 22 be
       -0.082806036 -0.03344019 0.0054206424 -0.15856077
000030 16 45 5d 3c 24 c0 2a 3c c8 07 fe 3c ae a2 54 be
       0.013505241 0.010421786 0.03100957 -0.20765182
000040 06 70 0b be 36 67 f8 bc 13 79 b6 bd d8 a5 0f bd
       -0.13616952 -0.030322652 -0.08909812 -0.03507027
000050 a0 98 09 be 36 ed 06 3d 33 0f 08 bd eb b6 b1 bd
       -0.13437128 0.032941066 -0.03321762 -0.08677467
000060 4e fc 29 bd cf 65 41 bd 7f 7d f4 bd 15 2d 90 bd
       -0.041500382 -0.047216233 -0.11937999 -0.07039849
000070 85 4e 13 3e bc e8 25 bd aa 2b c5 bd 34 49 ce 3d
       0.14385422 -0.040505156 -0.09627469 0.10072556
000080 70 e5 c9 3d 8d bd 43 3c 87 7e ab 3d 4d d2 53 bd
       0.09858215 0.011947048 0.083737426 -0.05171423
000090 c1 cd cd bd 8d c7 bf bd 7e c4 b5 bd 06 3b 54 3d
       -0.1004901 -0.09364233 -0.088753685 0.0518141
0000a0 21 38 22 bd 0e 77 de bc 89 9b ca 3d 56 38 57 bd
       -0.03960431 -0.02715638 0.09892947 -0.05254396
0000b0 13 c5 bb bc a6 45 43 3c a4 92 f7 3d 8b 9a 87 bd
       -0.02292112 0.011918461 0.12088516 -0.066212736
0000c0 3e b0 48 be ad 48 33 bd 6b be 7c 3d 94 de 9d 3d
       -0.19598481 -0.04377048 0.061705034 0.07708469
0000d0 6c 69 6d bd 58 6c f0 bb 11 53 1a bd 79 dc d7 bc
       -0.057961866 -0.0073371343 -0.037676875 -0.026350247
0000e0 3e 60 a7 bc 63 10 3b 3d 29 98 c7 3b 7c e6 13 3d
       -0.020431634 0.045669924 0.006091137 0.03610848
0000f0 d3 bf f6 bd 98 02 15 be 8c 26 33 bd 55 dd 5a bc
       -0.12048306 -0.1455177 -0.043737933 -0.013358434
000100 24 69 da bd b5 e9 b7 3d 09 06 b6 bd 57 1d 1a 3b
       -0.10664585 0.08980123 -0.0888787 0.0023516023
000110 86 5a a8 3d 9e 24 99 bd 2d 8d 9b bd 03 fa d4 bc
       0.08220391 -0.07477687 -0.075952865 -0.025998121
000120 85 1c e0 bd 7a 1a c8 3d 03 35 a9 3d f7 67 85 bc
       -0.1094294 0.09770675 0.08262064 -0.016284926
000130 4e 8c 8a ba d8 88 bd bd 04 b2 ca bd 8b af 84 3a
       -0.0010570379 -0.092546165 -0.09897235 0.0010123117
000140 f2 1d 83 ba de 17 af 3c d4 66 8b 3d c5 1f bb bd
       -0.0010003431 0.021373685 0.06806722 -0.09136919
000150 9f 7f 68 bd 7b b8 4a bd 3d ca 9e 3d f0 50 4c 3d
       -0.056762334 -0.04949234 0.07753418 0.049881876
000160 ef 70 49 bd c5 78 45 3d 86 07 8d 3c 40 ff 4a 3c
       -0.049179967 0.048210878 0.017215502 0.012389958
000170 4d ae 13 3c 1f 09 a4 bd b6 36 de 3b 0a 3b a2 3c
       0.0090137245 -0.08009552 0.0067814244 0.019803543
000180 85 ab 29 3d d3 2b 65 bd 5e 52 79 bd 81 de 92 3c
       0.04142334 -0.055949997 -0.060869567 0.017928364
000190 dc 3a ee 3d 76 42 3c 3d 2e 2b f8 bc 7f a6 f0 3d
       0.1163232 0.04596182 -0.030294027 0.117505066
0001a0 88 20 03 3e c1 9f c5 bd db 51 2b 3d 1c 62 0b 3d
       0.12805378 -0.09649611 0.04182611 0.03402911
0001b0 97 65 69 3a 07 a6 db bd 60 00 d3 bc 11 06 24 3a
       0.00089033827 -0.107250266 -0.025757015 0.00062570075
0001c0 10 5e 40 bd 4f 04 13 be cd 41 49 bb 30 27 8e 3d
       -0.046964705 -0.14357112 -0.0030709386 0.06941068
0001d0 ca 8f b3 3d d2 57 db 3c c3 5a 59 3d 8e 59 df 3c
       0.0876766 0.026775274 0.053065073 0.027264383
0001e0 14 f0 db 3c 93 b7 d7 3d 29 90 4a 3d 61 dc d5 bd
       0.026847877 0.10533061 0.049453888 -0.104424246
0001f0 86 3b c4 bb 14 65 87 3d 86 84 bc 3a f8 64 e3 bc
       -0.005988541 0.06611076 0.0014382757 -0.027758107
000200 e2 79 39 bc 77 42 01 bd 13 58 12 be 45 33 0a 3d
       -0.011320563 -0.031557526 -0.1429141 0.0337403
000210 ec ba 31 3d 36 04 88 bd fb ee 9b bd 65 7b 93 3a
       0.043391153 -0.06641428 -0.07613941 0.0011251984
000220 17 5f e8 bd 3d 82 01 be da ba cc bd 33 eb 96 bc
       -0.11346262 -0.12647338 -0.099965766 -0.018422699
000230 b1 9b ac 3d d4 ba 50 bd 29 18 01 be 67 96 2b be
       0.08428133 -0.050959423 -0.12606873 -0.16756593
000240 37 8c 35 3d 3e a2 1d bd 1a 60 10 be 62 19 16 be
       0.044323172 -0.038484804 -0.1409916 -0.1465812
000250 e5 4e aa bd 2d 5d 22 be 76 91 9c 3c 5e 1f 81 bc
       -0.08315829 -0.15855856 0.01911233 -0.015762027
000260 e1 46 2f bd e8 bb 2e 3d ef 54 0a 3e 88 94 0b be
       -0.042792205 0.04265967 0.13508962 -0.13630879
000270 3c 1d 92 bc e1 bc 73 3d ac 06 83 3d af 9b 08 3d
       -0.017836206 0.0595063 0.06397757 0.033351596
000280 f9 54 bc 3b d1 56 ae b6 4c b8 9f 3d 29 55 cc bd
       0.005747434 -5.195711e-06 0.07798824 -0.099771805
000290 8e 92 c3 bd 3f aa a0 bd 5f 8c 0e 3e a3 25 0e 3e
       -0.095494375 -0.07844972 0.13920735 0.13881545
0002a0 c8 c1 f7 bd 58 ec 0b bd 90 49 fa bc 99 ab ea 3d
       -0.12097508 -0.03416094 -0.030552655 0.11458511
0002b0 f5 8f 39 3e fd 71 73 3c 32 13 dd 3d 19 7a 15 be
       0.18121321 0.01485872 0.10794677 -0.14597358
0002c0 f4 57 91 3d 84 23 84 bb 36 b4 4a bc 24 ef ff 3c
       0.07096854 -0.004032554 -0.012372067 0.03124196
0002d0 01 21 23 3d bd c3 f6 bd 46 bf 8e 3d 0e 73 0d 3e
       0.039826397 -0.12049053 0.06970076 0.13813421
0002e0 b3 09 f2 3d 2b f6 e0 3d 01 4e a4 bc 34 be 52 bc
       0.11818256 0.10984453 -0.020056726 -0.012862731
0002f0 67 b8 a4 3d 04 d0 06 3d d2 c0 6b bc 4c a4 ae 3d
       0.080429845 0.032913223 -0.014389234 0.08527431
000300 86 f4 3d bd 47 d3 1e 3d 22 2b bc bc 08 97 ab 3d
       -0.046375774 0.03877571 -0.022969786 0.08378416
000310 e0 ae 23 bd ec 2d 3c bd e1 74 8f bd 72 c1 9a 3d
       -0.039961696 -0.045942232 -0.07004715 0.07556428
000320 38 3e 10 bb 47 81 ca 3a 67 1b b3 3d a4 a8 b8 bc
       -0.0022009742 0.0015449905 0.08745461 -0.022541352
000330 48 50 ab 3c d2 ce a6 3d 88 9e d7 bc be 96 ae bd
       0.020912305 0.081449166 -0.02632071 -0.085248455
000340 d1 1f c4 bd 59 29 a9 3d 65 50 f4 bd d5 c2 b9 3b
       -0.09576381 0.082598396 -0.119293965 0.0056689777
000350 5f 9f 0a be 82 a3 de bd 22 fe a2 bb 12 b1 b0 bd
       -0.13537358 -0.108710304 -0.0049741426 -0.086275235
000360 ff 29 9a bc 7a 4f b1 bd 44 95 b8 3d 0e 5a 12 3d
       -0.018818853 -0.08657737 0.09012845 0.035730414
000370 a8 ae d2 3d 4e e7 8b bd 6c 06 75 3c 39 db 9e 3d
       0.10287219 -0.06831227 0.014955144 0.07756657
000380 60 a6 db 3d 64 94 c5 3c 76 d7 b3 3d 31 cf b4 3d
       0.10725093 0.02411861 0.0878133 0.08828581
000390 ab ba b4 bd 0f d7 5b 3d 6a ab 96 bd aa ad 97 3d
       -0.088246666 0.053671893 -0.073569134 0.07406171
0003a0 16 1b 93 3d b1 28 43 3c d5 f5 d0 3d f7 a4 ad bd
       0.071829006 0.011911557 0.10203139 -0.0847873
0003b0 89 8c ca 3c ba 07 e2 3d e2 10 83 ba a4 79 89 3d
       0.024725216 0.1103663 -0.0009999538 0.06712654
0003c0 0b a6 93 bd 85 8f 78 3d c1 8c 71 bd f3 f7 12 3c
       -0.072094046 0.060683746 -0.058972124 0.0089702485
0003d0 6b 5a 9c 3c 91 9c c0 3d 28 96 fe 3b 96 47 da 3d
       0.019086083 0.09404863 0.007769365 0.10658185
0003e0 66 a1 f2 3d b0 08 0a 3d 3b 18 50 bd ba 8f fd 3d
       0.118471906 0.03369969 -0.050804358 0.12380929
0003f0 96 3e 43 bd 98 df 9e 3b b4 9f 02 3e c0 22 58 bd
       -0.04766711 0.004848432 0.12756234 -0.052767515

lstm.bias_ih_l0 f4 [256]
000000 6e 7e dd 3d 98 1f dd 3d b8 51 be 3d 43 da fb 3d
       0.1081513 0.10797042 0.0929293 0.122974895
000010 60 b6 14 bd fd 0a f8 bd cc c2 9c 3d 02 5b 10 3e
       -0.03630674 -0.12111471 0.07654342 0.14097217
000020 6f 21 de 3c 23 01 4f 3d b7 74 e7 3c 90 cc db bd
       0.027115552 0.050538193 0.028253896 -0.107323766
000030 ae 43 ed 3c 19 88 e9 bd a3 e5 60 3d 81 f1 79 3c
       0.028962936 -0.11402912 0.0549065 0.015255333
000040 09 dd 08 3e 27 8f df bd d0 3f 34 3d 14 a4 8a 3c
       0.13365568 -0.10915976 0.04400617 0.016923942
000050 a2 fa e0 3d 5f d2 53 bd 0b 0f b5 3c da 96 52 3d
       0.109853044 -0.051714297 0.0221019 0.051413395
000060 cd 55 13 3d 79 02 28 3d 71 b2 06 3e e3 0d 7c 3d
       0.035970498 0.041017983 0.13154007 0.06153668
000070 18 ae 43 bd d0 45 cc 3d 3f f7 74 3c e3 5f be 3d
       -0.04777345 0.09974253 0.014951526 0.09295633
000080 d6 15 9e bd e6 01 d0 3d 61 36 2b bd 7a 64 45 bc
       -0.077190086 0.10156612 -0.041799907 -0.012047881
000090 e0 e6 fe bc 35 20 03 3e 8c e7 07 3e 27 21 99 3d
       -0.03111595 0.12805255 0.13271922 0.074770264
0000a0 0a 9a 01 be 10 ed 6e 3d dc b3 08 bd 5e d5 90 bc
       -0.12656417 0.05833155 -0.033374652 -0.017679866
0000b0 8d 7f e9 bd 26 1c 04 3e b2 3a 33 bd 60 d6 24 bd
       -0.114012815 0.12901363 -0.043757148 -0.040243506
0000c0 a2 93 84 bd 67 9e 88 bd ae af 17 bd 93 c1 9b bd
       -0.06473471 -0.06670838 -0.037032776 -0.07605281
0000d0 ef 88 6a bd 58 b8 d2 3c f3 a7 82 bd 24 c3 d8 3d
       -0.057259496 0.025722668 -0.0637969 0.10584095
0000e0 38 1e 52 3d 4d c2 04 bd 08 9a c7 3c 29 98 33 3d
       0.05129835 -0.032411862 0.02436544 0.043846283
0000f0 91 93 73 bd ea e0 13 3e 4d b2 ed bc 46 e0 9f 3d
       -0.059466902 0.14441267 -0.029015685 0.07806449
000100 a2 fa bf bd 71 b0 65 bd 55 70 fd 3d 4e 8e 02 3d
       -0.09373976 -0.05607647 0.12374941 0.031873994
000110 0c de 26 bd e3 c6 5f 3d db 35 11 3e 41 da 09 3e
       -0.040739104 0.054633033 0.141807 0.13462164
000120 9d 52 d3 3d b2 9c b7 bb 83 8b 54 bd 0f b5 8a bd
       0.103184916 -0.0056033963 -0.05189086 -0.067728154
000130 7f 15 9d bb 54 e8 e6 bd 55 d4 19 3e 9a 46 72 3d
       -0.0047938223 -0.11274782 0.15022404 0.059149362
000140 d4 14 1d bd 51 e3 0f bb 80 2c 98 bc 06 56 15 3d
       -0.03834994 -0.002195556 -0.018575907 0.03645899
000150 7a fe 98 bc c1 de 32 bc 8c 93 3f 3c b6 36 cf 3d
       -0.018676031 -0.0109173665 0.011692893 0.10117857
000160 fd bc cc bb 2c 6d cf 3d a0 59 12 3e 48 a4 87 bd
       -0.006248115 0.10128245 0.14292002 -0.06623131
000170 06 a7 72 3d 68 7f 55 3d 47 bb 55 bd e3 b6 9c 3d
       0.059241317 0.052123457 -0.052180555 0.076520704
000180 1f 37 87 3d 97 de 54 bd 75 6f 2c bd e0 65 bd bc
       0.066023104 -0.05197009 -0.04209848 -0.023119867
000190 db 5f cc 3d ad 17 cf 3d c9 7e 9a 3d e4 6c 07 3c
       0.099792205 0.10111938 0.075437136 0.008265708
0001a0 1b 6a 23 3d 1d eb 75 bd 4e bf ba 3c 39 6a 50 bd
       0.039896112 -0.060038675 0.0227963 -0.05088255
0001b0 ea 6b 03 bd 7c e0 89 3b 2c ec 02 3d 5e b3 c0 3d
       -0.032085337 0.004207669 0.031963512 0.094092116
0001c0 2a 8b ed 3d c2 1c 98 3d 8e 8e d1 3d 24 c2 12 3e
       0.11598809 0.0742736 0.10232268 0.14331871
0001d0 8d 4d d4 3d d2 ee 77 bd 51 08 ca 3d f0 58 68 3d
       0.10366354 -0.06053049 0.098648675 0.056725442
0001e0 cd 94 1b bd 7d d8 d4 bb 98 ec 80 bd e9 e8 2b bc
       -0.037983704 -0.006495534 -0.06295127 -0.010492542
0001f0 3e 14 7a bd 32 0d a5 bd 1e c4 fc 3d 2c d1 d4 bc
       -0.06105446 -0.080591574 0.12342094 -0.025978647
000200 11 a7 1a be b7 9c f5 bd 90 62 76 bd 30 2d 07 3e
       -0.15102793 -0.119927816 -0.06015259 0.13200831
000210 41 6b 36 3d a6 11 7b bd 8e 94 05 be e4 ba 68 bd
       0.04453588 -0.061296128 -0.1304495 -0.056818858
000220 e4 8d 17 3d a8 ae 81 bd 44 94 12 be 38 65 cd bd
       0.03700055 -0.06332141 -0.14314371 -0.100290716
000230 31 f0 1f 3d e9 9a 1d bb 19 84 0d bd bd 10 a3 bd
       0.039047424 -0.0024048632 -0.034549806 -0.07962177
000240 41 24 1e be ef f2 48 bd 59 98 39 3d 41 cb dc 3b
       -0.15443517 -0.049059805 0.045311306 0.006738097
000250 3a c7 65 3d ff 9a 76 bd 23 db ba 3d dc e6 a6 3c
       0.0560982 -0.06020641 0.09123828 0.020373754
000260 cd 16 f7 bc 70 90 ad ba c9 39 09 3e 7d ee 3e bd
       -0.03016224 -0.0013241898 0.1340095 -0.04661416
000270 9e c6 f9 3c b3 fb b2 bc b2 fe 98 3d 50 7a 21 be
       0.030490216 -0.021848535 0.07470454 -0.15769315
000280 9f 38 94 3d c4 61 c5 3c 3a b4 ce bd 4e fa b0 bc
       0.07237362 0.02409447 -0.10092969 -0.02160373
000290 00 f2 c8 3d 74 0f a0 3d e6 d7 19 3d 29 8d a6 3c
       0.09811783 0.078154474 0.037559412 0.020330982
0002a0 f2 6e 1f 3d 5b 11 51 bc 9a ba 86 bc c9 82 96 3d
       0.038924165 -0.0127604855 -0.0164464 0.07349164
0002b0 21 8b c7 3d bf ab 50 bd 55 a7 45 3d 57 a6 36 bd
       0.097433336 -0.05094504 0.048255283 -0.044592228
0002c0 53 27 b6 bd 79 c1 32 bd 7f 92 01 3e 1e 96 db 3d
       -0.08894219 -0.04364154 0.1265354 0.10721992
0002d0 8e 02 1c be 93 de 20 3d 06 ff 11 be b0 3b d9 3d
       -0.1523535 0.039274763 -0.1425744 0.106070876
0002e0 86 30 e4 bd 14 ec ee 3d 74 7f 7b 3c 37 1c 0d 3e
       -0.111420676 0.11666122 0.015350211 0.13780294
0002f0 e6 a4 45 bc 29 51 0b 3e 16 01 82 bd d5 8f 02 3c
       -0.012063241 0.13605179 -0.063478634 0.007968863
000300 c1 79 1a 3e b3 67 6a bd 01 0b 00 3e 74 58 17 3e
       0.15085508 -0.0572278 0.12504198 0.14779836
000310 95 04 54 3d 1d 47 6a bd 61 55 4f bd 79 7d 9d bc
       0.051762182 -0.057196725 -0.050618533 -0.01922487
000320 21 12 67 3d b7 d8 ab bd 7f c1 d1 3d 78 9c d8 bd
       0.056413773 -0.083909445 0.102419846 -0.10576719
000330 80 cc aa bc d8 89 9c 3d 2c af ca 3d dd 89 58 3d
       -0.020849466 0.07643479 0.09896693 0.05286585
000340 48 9a 2f 3d 1f 26 e9 3d 8f f3 0c 3e ed f0 82 3d
       0.042871743 0.11384224 0.13764785 0.06393609
000350 6b bc a5 bd f9 b1 d0 bc 72 2b 03 bd fa 68 e3 3d
       -0.080925785 -0.025475489 -0.032023855 0.11104007
000360 a3 d6 2f bd 29 a8 13 3e c9 cb f4 3d fa 42 03 bd
       -0.042929303 0.14419617 0.119529314 -0.032046296
000370 cb b5 02 3c d8 21 ad 3c 31 67 69 3d b0 47 46 3d
       0.007977913 0.021134302 0.056983177 0.04840821
000380 c6 f7 bc 3d 32 86 93 bc 9d 2a 12 3e c0 0f 8e 3d
       0.092269465 -0.018008325 0.14274068 0.06936598
000390 67 d4 1f 3e 93 5d 2f bb 04 2e 03 3d ad d2 b7 bc
       0.15608369 -0.0026758655 0.032026306 -0.022439325
0003a0 3f 0f 00 be 9a b3 8b bd a4 e9 b1 3d 35 cb cb 3d
       -0.12505816 -0.06821366 0.086871415 0.09950868
0003b0 c2 87 6e bd ce 96 a0 3c 7d a9 38 bc f8 a2 c6 3d
       -0.058234937 0.01960316 -0.011270878 0.096990526
0003c0 53 65 c8 3c af 0e 07 3e ad 26 4b 3d ae 71 5b bd
       0.024462378 0.13189195 0.04959743 -0.05357521
0003d0 4d b2 5b bd 01 ad c4 bd 63 d9 2a bd 2b ce 84 3d
       -0.053636838 -0.096033104 -0.041711222 0.06484636
0003e0 64 28 fe 3c 7d bc 11 3e 0a fb 18 3e 5d 5c 83 3c
       0.03102512 0.14232059 0.14939514 0.016035253
0003f0 59 71 5a bc b6 11 88 bc e5 33 7f bd b1 c4 ed bc
       -0.013332688 -0.016610008 -0.06230535 -0.029024454

lstm.bias_hh_l0 f4 [256]
000000 58 52 38 3a 30 52 b4 bd 38 07 88 bd 02 9d 52 bd
       0.0007031313 -0.088047385 -0.06642002 -0.051419266
000010 39 ae 4f bc 79 68 bc bd ce 05 a0 3d b7 6a 5f 3d
       -0.012675815 -0.09199614 0.07813607 0.05454513
000020 73 1f 83 bd 41 4a e0 3d 9c 26 f0 3d 7a 50 75 3d
       -0.06402483 0.10951663 0.11726114 0.0598912
000030 60 f2 95 39 7c f8 f3 bd 3e c4 0e 3e c3 38 5d 3c
       0.00028600078 -0.11912629 0.13942048 0.013502303
000040 c7 38 05 3d 35 a6 bc 3d 53 19 ff 3d ad e5 da bc
       0.03252485 0.09211389 0.12456002 -0.026720846
000050 bd 19 76 3d 5d 22 dc bd 95 e1 a4 bd b8 30 33 bd
       0.06008314 -0.10748742 -0.08050839 -0.043747634
000060 34 04 b9 bd 74 ea b3 3d e5 09 d6 3d cc d3 f8 bc
       -0.09034005 0.08784953 0.10451106 -0.03037443
000070 f0 c5 08 3e e0 ad 1a 3e a3 17 d8 3d 2e 48 74 3d
       0.13356757 0.1510539 0.10551383 0.05963915
000080 f9 c1 33 3d 65 da 0f 3e 65 b9 0d 3e bb b4 02 3e
       0.04388616 0.14048155 0.13840254 0.12764256
000090 99 9e 30 3b 95 33 e0 3d fb b4 52 3d 0a b3 4a bd
       0.002695 0.109473385 0.051442128 -0.04948715
0000a0 9f 4c fb 3c 40 cf 04 3d 3e 96 cd 3b 6a 5c ec 3c
       0.030676184 0.03242421 0.006274014 0.02885266
0000b0 f9 1b b7 bd 7b cf b0 bd 5d 35 c0 3d 40 33 e4 3c
       -0.08940882 -0.08633324 0.09385178 0.02785647
0000c0 1a d3 72 bd b2 5b 1c bb 77 9d 78 bc d6 a3 44 3c
       -0.059283353 -0.0023858366 -0.015174261 0.012001952
0000d0 78 73 10 3e ed e0 0a 3d fc cc 0c 3d 1f 51 15 3e
       0.14106548 0.033905912 0.034375176 0.14581726
0000e0 98 e0 3f 3d 8c 3e b3 3d 16 8f 67 3c c1 3a 0f 3e
       0.04684505 0.08752164 0.014133235 0.13987257
0000f0 b5 db 12 bd 65 a7 84 3d ab f0 86 3d b9 f2 5e bd
       -0.03585406 0.064772405 0.065888725 -0.054430697
000100 dc 8e 01 bd 81 21 12 bc 43 b0 af bd 53 06 d8 3d
       -0.031630382 -0.008919121 -0.08578541 0.10548081
000110 5a b6 4d 3d 07 73 98 3b ad de 30 bc d7 48 87 3d
       0.050222732 0.004652384 -0.010795278 0.0660569
000120 84 08 9a 3d e7 7f 9d bd 97 c3 95 bd f8 f8 0d be
       0.075211555 -0.07690411 -0.073126964 -0.13864505
000130 1f 5b 31 bd 1b 0c 76 3d 09 0e 58 bc 16 49 78 3c
       -0.04329979 0.06007014 -0.01318694 0.015154144
000140 b4 fc 5b bc a4 cf 98 bd eb 89 b7 3d c4 a3 91 3d
       -0.013426948 -0.07461479 0.08961853 0.07111314
000150 44 f7 c1 3d 7f 73 9b bd ce db c2 bd 8c 75 0a 3e
       0.0947099 -0.075903885 -0.09514581 0.13521403
000160 58 45 89 bc 51 e0 2b bd c3 27 b2 bd da c1 6b bd
       -0.016756698 -0.04196197 -0.0869899 -0.057557918
000170 d0 4d bc bd f3 7e 50 bd 33 82 13 3e 3d 4f df bc
       -0.09194529 -0.05090232 0.14405136 -0.027259463
000180 45 a2 e4 3d 55 84 05 bd b7 71 18 3c 24 85 ce 3d
       0.11163763 -0.032596905 0.0093044555 0.10083988
000190 f1 b4 06 3e d5 97 93 3d e4 db 25 bd 89 10 09 3e
       0.13154961 0.07206694 -0.040492907 0.13385214
0001a0 de 45 70 3d 81 c5 e0 3a cc ea 2f 3c 7b fb 46 3d
       0.05866038 0.0017148705 0.010737132 0.048579674
0001b0 c0 36 81 3d dd d2 99 3d 60 75 c8 3d 24 ee ce 3d
       0.06309271 0.07510922 0.097880125 0.101040155
0001c0 36 47 be 3d 47 ff 09 3c 4f bf 9d bc 49 7e 40 bd
       0.09290926 0.008422679 -0.019256262 -0.046995435
0001d0 97 91 e1 3d 34 fe 1c bd 1d 90 99 bd c3 2e b6 3d
       0.11014097 -0.038328364 -0.074981906 0.08895638
0001e0 06 5e bc 3d f4 ce 52 bc 40 e7 96 3c 90 b9 c0 3d
       0.09197621 -0.012866724 0.018420815 0.09410393
0001f0 12 68 54 bd 8c c8 2d bd 67 6d b0 3d ff de f9 3d
       -0.05185706 -0.042427585 0.08614617 0.12200736
000200 e7 65 a9 3d 8a 0d 0a be 04 2a a1 bd 8b dc e5 bc
       0.082713895 -0.13481727 -0.07869342 -0.028059265
000210 64 77 05 bc c9 c6 c4 bd 9c 17 a8 bd 44 cc 47 bd
       -0.008146141 -0.09608228 -0.08207628 -0.048778787
000220 e7 97 ce 3d df e2 8a bd a8 47 25 be 5e d8 e6 bb
       0.10087567 -0.067815535 -0.16140616 -0.007044836
000230 a4 bd a1 3c 52 31 20 3d ef f0 ff 3d 07 ba bb 3d
       0.019743748 0.039109536 0.12497126 0.09166341
000240 63 12 0b 3d 0e ff 05 3e ac 70 0d be 7e 0a 57 bd
       0.03395308 0.13085577 -0.13812512 -0.05250024
000250 eb a2 77 bd db 14 51 3d c1 d4 fe bd 01 8a 66 3d
       -0.060458105 0.05104528 -0.12442923 0.056283955
000260 74 7c a9 bc b8 eb 90 bd f2 ca 8a bd ff 37 fa ba
       -0.020689227 -0.0707621 -0.0677699 -0.0019090174
000270 19 12 0e 3d 8e a1 17 be b8 11 cf 3d 1d 19 3e bd
       0.034685228 -0.14807722 0.101108015 -0.04641067
000280 f3 32 f2 3c 04 b6 5f 3d 5f 95 a6 bb 0e 28 bd 3d
       0.02956531 0.054616943 -0.0050837244 0.092361555
000290 c1 99 45 3d 00 95 16 3e 9d c0 0d 3e 0c 6c 92 bc
       0.048242334 0.14705276 0.13843007 -0.017873786
0002a0 5a c0 10 3d 4b f3 d6 3c 6b fc 47 3d 4b dd aa bd
       0.03533969 0.026239058 0.04882471 -0.083429895
0002b0 95 d6 2e 3d 90 8c e8 3d 0a c8 8b 3d d4 ef 19 3d
       0.04268511 0.11354935 0.06825264 0.037582234
0002c0 83 8f e5 3d 73 22 03 be 46 31 9b 3c 20 b5 20 3d
       0.11209013 -0.1280611 0.018944394 0.039235234
0002d0 e9 fc 88 bd 9c 63 4d 3d 9b 92 a2 bd da 14 f1 3d
       -0.06688864 0.050143823 -0.07938119 0.11771555
0002e0 44 b7 e1 bd d9 3f 13 3e c7 3d ca bd ee a2 a0 3d
       -0.11021283 0.14379825 -0.09875064 0.07843576
0002f0 a2 72 1a be bd 64 a0 3d b5 10 1d be d4 89 37 bc
       -0.15082791 0.07831714 -0.15338404 -0.011202294
000300 6e 59 ba bd 98 b4 59 bd cb 89 11 3d 11 b2 14 3e
       -0.090990886 -0.053150743 0.0355318 0.14521052
000310 75 f6 62 3d c6 af a0 3c 7d 40 a6 3c 58 3d 83 3d
       0.05541082 0.019615065 0.020294422 0.06408185
000320 1f 16 9e bd 43 55 61 bd 87 50 98 3d 35 bf 0f 3d
       -0.07719063 -0.055012953 0.07437234 0.03509446
000330 c6 e5 62 3d 99 b7 46 bd 1c 8b bb bd ba 67 a9 3d
       0.05539491 -0.048514936 -0.091573924 0.082717374
000340 a8 19 12 3e 01 a8 a8 bd 37 cc 97 bd c4 c7 b2 3d
       0.142676 -0.08235169 -0.07411998 0.087295085
000350 b7 73 98 3d 6c a0 12 bd 4e 20 a4 3d 35 01 9a 3d
       0.07443946 -0.03579752 0.08013974 0.075197615
000360 ab 08 c5 bd 81 5b 6d bc 15 46 3b bd 44 b7 b8 3d
       -0.09620794 -0.014487148 -0.045721132 0.0901933
000370 22 5b 4a 3d f3 54 13 3e c8 0e 0f 3c e1 d0 8e 3d
       0.049403317 0.14387874 0.0087315515 0.06973434
000380 cc c7 12 3e c1 0a 12 3e 78 50 19 3e 6b ea a6 3d
       0.14334029 0.14261915 0.14972103 0.081501804
000390 a1 a9 6e 3c b2 06 23 bd 9b ab ca 3d bd af 82 3d
       0.01456681 -0.039801307 0.098960124 0.06381176
0003a0 df 2f 1b 3b 1a 5b a8 bd e1 ef e8 3c c8 7a 9f bc
       0.0023679656 -0.08220501 0.028434696 -0.019467726
0003b0 12 4a 8d 3d 4f 38 98 bd 07 68 ee b8 ca ad bf bd
       0.068988934 -0.07432615 -0.00011368101 -0.093593195
0003c0 e9 b9 e8 3d 05 63 02 bd f4 c5 95 bd 4e 15 79 bd
       0.113635845 -0.031832714 -0.07313147 -0.060811333
0003d0 3c 6f cf bd 8a 27 93 bd 07 41 de 3c 0d 9b b5 bd
       -0.10128638 -0.07185276 0.027130617 -0.08867464
0003e0 0b da 0d bd da 32 9e bd 2c 1e c9 3d c0 cf 13 bc
       -0.03463177 -0.07724543 0.09820208 -0.009021699
0003f0 f0 86 15 3e 56 a6 41 3d 6b 5e 60 3d d1 88 2e bd
       0.14602256 0.04727777 0.054777544 -0.042610947

fc.weight f4 [1, 64]
000000 28 4c 29 3e 51 7a bc 3d c8 60 b0 3d 98 fc f1 bd
       0.16532958 0.092030175 0.086122096 -0.118157566
000010 a5 a3 a8 bd e3 8b 9d bd 14 cb 1f 3d 20 74 d4 3d
       -0.08234338 -0.07692697 0.03901203 0.103737116
000020 9e 31 61 bd 00 8b f4 3d 6d f9 bf 3d d5 c4 4b bd
       -0.05497896 0.11940575 0.09373746 -0.04974826
000030 74 9a fe 3c b2 1d d0 3d 13 cf 81 bd 9b 22 01 bc
       0.031079508 0.10161914 -0.063383244 -0.007881786
000040 7e 95 ac 3d f2 96 f5 bd 07 d4 db 3d c3 26 79 bd
       0.08426951 -0.11991681 0.107338004 -0.06082798
000050 f6 ce a2 bd 4b 0d bb bd c1 1d ec 3d 98 d5 24 be
       -0.07949631 -0.09133395 0.115291126 -0.16097105
000060 97 35 f1 3d 1a 34 1d 3e d6 e0 e3 bc a3 ce f5 3d
       0.117777996 0.15351906 -0.027817171 0.120023035
000070 cd 57 90 bd 39 64 17 3e 8a 0a 8d bd 24 1f 0c 3e
       -0.07047997 0.14784326 -0.06886776 0.13683754
000080 37 90 ba bd 9e ff a1 bd 94 33 bf 3c 31 1c df bd
       -0.09109538 -0.07910083 0.023340024 -0.10894049
000090 21 da ce bd 39 6f c4 bd f5 e9 ce bc 19 06 f6 3d
       -0.101001985 -0.095915265 -0.025258044 0.12012882
0000a0 83 e7 4e 3d 79 b3 8e 3d fd 9e 76 3d a7 c6 08 be
       0.050513756 0.069678254 0.060210217 -0.1335703
0000b0 b9 eb d3 3d 59 a5 18 be d6 92 7c 3d 23 c9 51 3d
       0.10347695 -0.14906825 0.06166347 0.05121721
0000c0 fb b3 d3 3c d4 da 82 3d e7 08 3f bd 7c f1 84 bd
       0.025842657 0.063893944 -0.04663935 -0.06491372
0000d0 a8 63 89 3c e6 65 18 3d d0 0d d1 3c 95 e7 21 be
       0.016771153 0.037206553 0.025519282 -0.15810998
0000e0 ba 3f dd 3d e3 61 f6 bd df 7f 95 3d 15 0e 0c be
       0.108031705 -0.12030389 0.0729978 -0.13677247
0000f0 6a 84 c3 3d cd 07 38 bc fd 52 c8 3d 93 92 a6 3d
       0.0954674 -0.011232329 0.09781454 0.081334256
