models/LSTM/lstm_hybrid_feat_20250629_0058.pt (torch, 83509 bytes, 5 tensors)

lstm.weight_ih_l0 f4 [256, 13]
000000 9e 18 45 3d d4 3a be 3c b9 5f 2d bd 19 5b 05 3d
       0.04811918 0.02322141 -0.042327616 0.03255758
000010 0c e1 5a bd 7c 8d 28 3d ae e8 be bd a9 35 92 3d
       -0.053437278 0.041150555 -0.09321724 0.07139141
000020 86 5f a5 3d a5 37 f6 3d ca f5 91 bc 1e 7d ac bc
       0.0807486 0.12022332 -0.017817397 -0.021055754
000030 9e fa 6d 3d 15 ff 7f bc 9c f1 ca bd d3 e8 90 bd
       0.058100335 -0.015624781 -0.099093646 -0.07075658
000040 9b ed 2b bd b8 c7 8a bd 5a 45 8d bd 18 5c b4 3b
       -0.041974645 -0.067763746 -0.068979934 0.0055041425
000050 cf 38 78 bc be 9b ab 3d a1 c0 7a bd f4 e1 d0 3d
       -0.015150263 0.08379315 -0.06121886 0.10199347
000060 fa 12 93 bc 83 6c ec 3d 1d 46 8f bd c7 20 d3 bd
       -0.017953385 0.115441345 -0.06995795 -0.10308986
000070 e9 4a bb 3d 59 f9 5a 3d fd 76 ce bc a2 d0 8e bd
       0.09145147 0.053460453 -0.025203222 -0.06973387
000080 10 73 e1 3b 82 75 b9 3d 68 a5 83 bd 18 f5 a8 bd
       0.0068801716 0.09055616 -0.06428033 -0.08249873
000090 90 a7 ee bd f7 71 25 be ab 74 0a 3d f8 c0 0f 3e
       -0.11653054 -0.16156755 0.03380267 0.14038455
0000a0 4c b1 45 bd 16 4c 06 3e 16 c2 8a bb 84 aa 23 bd
       -0.048264787 0.13114962 -0.0042345626 -0.03995754
0000b0 bf 80 85 3d 9c 9d c2 3b 68 1d 7f ba d7 59 cb bc
       0.06518697 0.0059391987 -0.000973186 -0.024823112
0000c0 b1 c8 af 3d 95 db 03 bd f1 86 47 bc e5 86 a5 3d
       0.08583201 -0.03219183 -0.012178169 0.0808237
0000d0 ff d6 bd bd 13 75 8f bd 89 30 51 bd 68 3e d5 bd
       -0.09269523 -0.07004752 -0.051071677 -0.10412294
0000e0 77 5c 0f be 65 44 a6 3d dc 2b 85 bd cb 2e 85 3d
       -0.14000116 0.08118514 -0.06502506 0.06503066
0000f0 69 c2 b1 bd d4 33 f0 bd df e4 da 3d ff a8 3c 3c
       -0.08679659 -0.117286354 0.10688185 0.011514901
000100 4d 51 18 3e 80 0d 97 bd e9 66 b1 3d 27 bf a0 bd
       0.14874764 -0.07375622 0.08662207 -0.078489594
000110 e5 ee f7 bd 78 4d e3 3d e3 bc bd 3d c7 3f 2e bb
       -0.121061124 0.1109876 0.09264543 -0.0026588307
000120 4b 8a fb 3c 3c ce c8 3d 1a 96 90 bd 7d 2d e2 3b
       0.030705592 0.09804961 -0.070598796 0.0069023953
000130 a0 17 e9 3c ea aa 02 3e 74 de b5 3d 30 a5 74 3d
       0.028453648 0.12760511 0.0888032 0.059727848
000140 ee 22 d6 3d 20 4b 28 bd 6c 84 41 3d 43 10 9a 3c
       0.10455881 -0.04108727 0.047245428 0.018806582
000150 00 ff eb bd 8c d1 f0 bd a2 28 28 3e 21 9a 8a bd
       -0.11523247 -0.11758718 0.1642175 -0.06767679
000160 2b c0 b0 3d 8e df 98 bc 66 3d 72 bd c5 85 00 be
       0.08630403 -0.018661287 -0.059140585 -0.12551029
000170 c4 1c c1 3d 5d 01 0f bd 2a 99 67 3d 6a 17 94 3d
       0.09429315 -0.03491341 0.056542553 0.072310284
000180 68 91 1f 3e 89 e7 e9 bd ae ca 18 be 32 1e f3 bd
       0.15582812 -0.11421115 -0.14921066 -0.11870994
000190 ad 85 ef bd ab 96 17 bd cb f7 15 bd 2d a5 73 3d
       -0.116954185 -0.037008923 -0.036613267 0.059483696
0001a0 88 f7 93 bd fc 99 a4 3d be c5 d8 bd a5 9a b7 3d
       -0.07224947 0.08037183 -0.10584591 0.08965043
0001b0 80 52 d5 3d 3b 9d e8 3d 14 fe af bd 25 18 ab 3d
       0.10416126 0.11358114 -0.085933834 0.083542146
0001c0 da 57 3d bd dc f2 b9 3c d3 11 76 bd 38 d0 92 3d
       -0.04622636 0.022698812 -0.060075592 0.07168621
0001d0 32 cb 9e bd fe 93 d4 bc 82 4d d4 3c bb 22 24 bd
       -0.077536 -0.025949474 0.025915865 -0.040072184
0001e0 ef 5c 67 3d dc 39 9b 3d fd 40 74 bd 58 e7 e1 3d
       0.056485113 0.07579395 -0.05963229 0.110304534
0001f0 7e 7b a3 3d b7 cb 89 bc 7a 5f 82 bd 03 d9 39 3d
       0.07982539 -0.016820772 -0.06365867 0.045372974
000200 95 7d c6 bc 2d e0 9f bd 9b 44 05 3e 17 98 5e 3d
       -0.024229804 -0.0780643 0.13014452 0.054344263
000210 62 4e e1 bc d7 db 3f 3d e6 60 ac bd 97 71 99 3d
       -0.027503196 0.046840515 -0.084169194 0.07492369
000220 73 9f cd bd 6a 57 d3 3d 8d d4 1d bc e1 f1 08 3e
       -0.10040178 0.10319407 -0.009633196 0.1337352
000230 c3 04 f4 3d f1 f8 04 3e 8a 80 e3 3d 41 7e 21 bd
       0.11914971 0.12985589 0.11108501 -0.039427046
000240 52 3b e4 3d 94 24 9e 3b a0 08 8d bc 5c b3 9a bd
       0.11144127 0.004826138 -0.017216027 -0.07553741
000250 a0 20 f4 3c ea c8 ad bd 9c 7d 87 3d 2c bf ca 3d
       0.029800713 -0.08485587 0.06615755 0.098997444
000260 54 10 a9 3d cb e3 39 bd 81 95 45 bc ad 6d 8f bd
       0.082550675 -0.045383256 -0.01205957 -0.07003341
000270 86 dc a1 3d d0 82 2e 3e 83 14 16 bd b0 25 e6 3d
       0.0790339 0.17042089 -0.036640655 0.11237657
000280 ab a4 87 3c 2c 4b db 3d 67 06 fe 3d 11 22 59 bc
       0.016558012 0.10707697 0.12403565 -0.013252751
000290 c3 b2 12 3e 49 c1 01 3c 45 cc be 3d ab 71 7b bd
       0.14326005 0.007919618 0.09316305 -0.0613877
0002a0 2b 0f 95 3c fe 82 05 3c 90 d7 6a bd 0e 81 47 3e
       0.01819571 0.008148907 -0.057334483 0.19482824
0002b0 d2 e0 a0 3b a1 1b 99 3c 96 2c 03 3e 18 fe 0e bc
       0.004909613 0.018689932 0.12809977 -0.008727573
0002c0 a1 dc b3 bd a8 91 bd 3d 9d a2 6d 39 d6 d1 09 3c
       -0.08782316 0.09256297 0.0002266266 0.008411845
0002d0 9a ad bf bd 5c 23 1e 3b 00 d2 88 3b d5 60 f8 bb
       -0.09359284 0.0024129963 0.0041754246 -0.0075799027
0002e0 b2 c8 f8 3c 5c 85 a9 bc 5e 85 93 bd e8 20 fd bc
       0.030369136 -0.020693474 -0.07203172 -0.03089948
0002f0 ba 54 84 3d e3 cd 33 bd 95 06 a1 3c 1a be a4 bd
       0.06461473 -0.04389752 0.019656459 -0.080440715
000300 f0 5e 8c 3d 75 c4 29 be bb ec bc 3d 99 0d 36 3b
       0.068540454 -0.16578849 0.0922484 0.00277791
000310 96 f3 e4 3a 74 8b 37 3e 2a 81 2d be 23 19 30 3d
       0.0017467614 0.17924291 -0.16943803 0.042992722
000320 83 a6 07 be cd 5e 2e be 1a 20 82 3c 3c f3 5c 3d
       -0.13247113 -0.17028351 0.015884448 0.053942904
000330 ea c3 2a 3c 12 dd ad bd 1f c4 cc 3d 53 51 16 3e
       0.010422686 -0.084894314 0.09998345 0.1467946
000340 26 b4 26 3d 98 4e 19 3e 36 28 18 3e f5 49 17 3d
       0.040699147 0.14971387 0.1485909 0.036935765
000350 d6 e1 bb 3c b2 02 08 3c 93 79 ce bd 53 bd c3 bd
       0.022934835 0.008301424 -0.10081782 -0.09557595
000360 7d 02 94 3d 92 dc 9a bd 19 47 0e 3e 39 5e 57 bc
       0.07227037 -0.07561602 0.13894309 -0.013145023
000370 8a 03 2f 3e 1f 16 04 3d 77 31 a1 3c 09 cc ab 3d
       0.17091194 0.03224766 0.019676907 0.08388526
000380 68 cb 8f 3d 3c de 08 bc e6 d5 1b 3e 8f f1 66 bd
       0.070212185 -0.008353766 0.15218315 -0.056382712
000390 bd be 01 be 84 7a eb 3c 90 33 26 3d 85 03 1d 3e
       -0.12670417 0.028744943 0.040576518 0.15333374
0003a0 82 4b 69 bd e8 ed 0d 3e 16 72 d3 3d a1 16 05 be
       -0.056956775 0.13860285 0.103244945 -0.12996913
0003b0 05 af a8 bd 73 02 a1 bd 42 c2 92 3d c6 0f 18 be
       -0.08236507 -0.07861795 0.07165958 -0.14849767
0003c0 77 8b e4 3d 21 b1 14 bd e0 69 1a bd 92 6c 5e bc
       0.11159413 -0.036301736 -0.037698627 -0.01357569
0003d0 26 fe dc 3d a4 aa f9 3d 19 ad f2 bd 37 70 4a 3d
       0.107906625 0.1219075 -0.11849422 0.049423423
0003e0 30 bb 23 3c 10 05 41 3c 39 15 92 3c ae 78 d3 bd
       0.009993359 0.011780992 0.017832385 -0.10325752
0003f0 07 82 06 be 1c c1 2d bd d9 9d 49 bd aa c2 de 3d
       -0.13135539 -0.04242049 -0.0492228 0.10876973

lstm.weight_hh_l0 f4 [256, 64]
000000 81 29 d9 3c 68 2e 77 3d f1 73 77 bd e9 2e 5f bc
       0.026509048 0.06034699 -0.060413305 -0.013622024
000010 89 47 71 bd 0f 8a 17 3e 57 7d 1e 3d 96 9a 22 3d
       -0.058906112 0.14798759 0.038693752 0.039698206
000020 78 5c 36 bd 9c 5a f7 bc 7e e1 9b bd 69 f3 02 3d
       -0.04452178 -0.030194573 -0.076113686 0.031970415
000030 9a 36 d7 bd a3 c2 76 bd 15 92 35 3d 50 1f 2c bd
       -0.10508461 -0.060244214 0.044328768 -0.04202205
000040 c4 e2 60 bd 28 9a e0 bd 8e 42 dc bc 6b 06 a2 3d
       -0.05490376 -0.10966903 -0.026887204 0.079113804
000050 07 d6 cd 3d e0 50 63 3b ff 68 b8 bb 8a aa 0d be
       0.10050588 0.0034685656 -0.005627751 -0.13834587
000060 34 f1 91 bd 8a 50 76 3d 82 6a 0d 3e 12 b0 35 3d
       -0.07126084 0.0601354 0.13810161 0.044357367
000070 92 46 5a 3d 21 46 80 bc 28 17 ef 3c d0 62 0f 3e
       0.053289957 -0.01565844 0.029185846 0.14002538
000080 3a 34 8b 3d 3d eb e1 bc 1a 52 df bd e3 d5 cd 3c
       0.06797071 -0.02757799 -0.109043315 0.025126403
000090 3a 59 05 3e b8 e4 db ba c4 8c 67 bd f0 f3 cf bc
       0.13022318 -0.0016776538 -0.05653073 -0.025384873
0000a0 b1 f9 60 bd 77 96 1b bd 65 41 9b bd 22 b7 ca 3d
       -0.054925624 -0.03798529 -0.075808324 0.09898211
0000b0 52 1c d0 bd 96 ff ab 3d 51 48 0e be 12 3e 44 bc
       -0.10161652 0.083983585 -0.13894774 -0.011977689
0000c0 39 30 f4 3d 90 32 95 bd a4 93 88 3d 42 19 1e be
       0.1192326 -0.07285035 0.06668785 -0.15439323
0000d0 fa c1 17 be 26 d1 dc bd b3 4d ae bd d5 00 c1 3d
       -0.1482009 -0.107820794 -0.08510914 0.09423987
0000e0 ca 79 54 3d 6b 11 8e 3d 71 e8 9b 3d dc bd 47 3b
       0.05187396 0.06936916 0.07612694 0.0030478155
0000f0 04 4a 14 be 7b bc 1d bd 66 02 41 bc b3 66 fa b9
       -0.1448136 -0.038509827 -0.011780357 -0.00047760233
000100 ee 58 a3 bd 5d 1b 45 bd 7d 29 62 bd 99 8e f4 bb
       -0.07975946 -0.0481218 -0.055215348 -0.007463288
000110 b9 bf 58 bd 7e d8 c8 3d af ac e7 bd f2 46 f8 bd
       -0.052917216 0.098069176 -0.11312234 -0.12122907
000120 7d c6 e1 3d b8 b8 1f 3d 72 37 8a bd 38 13 c5 3c
       0.11024187 0.03899452 -0.067488566 0.024057016
000130 6f af b0 bc 22 46 bd bd d3 26 c2 3b 12 1d c6 3c
       -0.021568028 -0.092418924 0.0059250384 0.024183784
000140 e1 72 02 3d 46 08 86 bd c0 97 8b 3d 34 a1 db 3d
       0.03184784 -0.06544547 0.068160534 0.107241064
000150 09 37 e9 3d f5 5a 4f bd ee 83 ac 3c 35 4f 13 3d
       0.1138745 -0.050623853 0.021059003 0.03596421
000160 65 3c bc bd 97 20 8c bd f7 67 2e 3d de 7f 0c be
       -0.09191207 -0.068421535 0.042579617 -0.13720652
000170 24 1e b2 bd eb 25 e2 bd d4 69 8c bd 8a 4e b8 bc
       -0.08697155 -0.110423885 -0.068561226 -0.022498388
000180 8f 3c 26 3e 3f b4 9c bd f0 02 f7 ba a2 87 00 3e
       0.16234039 -0.07651567 -0.001884548 0.1255174
000190 b2 2f 52 bd e5 fd ad 3c d8 c6 1b bd 97 29 59 bc
       -0.051315017 0.02123923 -0.03803143 -0.013254545
0001a0 2d ec 0c 3d af 6a b0 3d 0c e7 ef 3d e6 96 f3 3d
       0.034404922 0.08614098 0.117139906 0.11894016
0001b0 3a 9f a6 bd 0d 61 c8 bd f3 b0 c6 3d bb 39 25 3e
       -0.08135839 -0.09784136 0.09701719 0.16135304
0001c0 e4 79 9f bb d4 c6 0e 3d 3c 91 6f bd 79 d1 a5 3c
       -0.0048668254 0.034857586 -0.058488116 0.020241486
0001d0 5c 0a e3 3c d9 1b 3a bd 6e 4d ba bd 9a d1 08 3e
       0.0277149 -0.045436714 -0.090968 0.13361207
0001e0 c9 55 44 bd 94 a0 ee bd e4 ce cc 3d 0c b7 87 3c
       -0.047933374 -0.116517216 0.10000399 0.016566776
0001f0 88 54 08 be 90 37 01 bc 17 be 62 bc be 0f ca 3d
       -0.13313496 -0.007886782 -0.013839266 0.09866284
000200 46 a8 16 3c f6 a2 bb bd 29 32 8b bb 5a ac 90 bd
       0.009195393 -0.09161942 -0.004247923 -0.070641235
000210 20 8e 7d 3d ec 13 85 bd 52 9d 97 bd 77 1d aa 3c
       0.06190312 -0.064979404 -0.07403053 0.020766003
000220 0d fa e2 bc 90 ff 3c 3d 22 7c ba bb 9f d8 c2 3c
       -0.027707124 0.04614216 -0.0056910673 0.023784934
000230 06 69 ec 3c 3f 0e a2 bd 56 46 04 be af 32 7d 3d
       0.028858673 -0.079128735 -0.12917456 0.061815914
000240 96 f7 a8 bd 30 7c 10 3d a6 e3 f5 bd 07 ed c6 3c
       -0.08250348 0.035274684 -0.12006311 0.024282945
000250 8f 18 6e bc 47 d6 a2 3d a5 35 14 bd 93 e5 45 3d
       -0.014532222 0.079510264 -0.036183972 0.048314642
000260 6b 2d c4 3c 46 d2 fe 3d d3 f9 99 3c 30 8f 1e bc
       0.023947438 0.1244245 0.018795883 -0.009677693
000270 8a fe 0d be 2a 0e d2 bd 98 e2 25 bd 2b 3f 85 3d
       -0.1386663 -0.10256608 -0.0404993 0.06506189
000280 85 79 80 3d 85 ca e0 3d ac 34 cb 3d 64 02 2a 3c
       0.06273178 0.109761275 0.09922156 0.0103765465
000290 87 7a e4 bd 5f 5a 7c 3d 26 51 44 bd 96 b0 8c bd
       -0.11156183 0.061609622 -0.04792895 -0.068696186
0002a0 fd 94 f0 3d 1d 9e 68 bd 27 6a 12 bc f7 9b 98 3c
       0.11747167 -0.056791414 -0.0089364415 0.018629057
0002b0 84 c9 08 bd 5f 49 0c bd 4f a5 5d bc 6f 6c d6 3d
       -0.033395305 -0.03424966 -0.013528182 0.10469901
0002c0 5d 77 e8 3d 6a 86 bb bd 33 ad e5 3d 48 aa bb bd
       0.11350892 -0.09156497 0.11214676 -0.09163338
0002d0 f5 13 f4 3d 63 67 d5 3c 11 30 23 bc d0 d5 90 bb
       0.11917869 0.026050275 -0.00996019 -0.0044200197
0002e0 08 23 12 be 30 e5 f0 bd 13 8e 9b 3d 71 ad 00 3e
       -0.14271176 -0.11762464 0.07595458 0.12566163
0002f0 a1 dc 4c bd bb 65 da bd f2 73 a0 bd ce 92 55 3d
       -0.050015096 -0.10663935 -0.07834615 0.052141957
000300 da a6 6f 3d ff 09 8b bd 08 d4 71 3c d8 7e 94 bd
       0.05850873 -0.06789016 0.014760025 -0.07250756
000310 07 30 fb bd 65 50 9d 3d 84 06 15 be 3a c4 ba bd
       -0.1226502 0.0768135 -0.14553267 -0.091194585
000320 0e 96 53 3d 0c 84 9f 3d 2c 6c 41 3d f5 d8 d4 bd
       0.051656775 0.07788858 0.0472223 -0.10392944
000330 86 69 10 be fd b4 c2 bd 37 7b a0 bd 62 9d 56 3d
       -0.14102754 -0.09507177 -0.07836001 0.052396186
000340 81 7c e0 bd 70 e9 df 3d 07 21 81 3b 2d 34 9f bd
       -0.10961247 0.109331965 0.0039407047 -0.077736236
000350 08 72 6c 3d c8 35 95 3d 6e b9 3e 3c 92 9b db bd
       0.057725936 0.072856486 0.01164089 -0.10723032
000360 be bc 78 3d 90 55 9c bc 45 43 8e bc ab 3a c0 3c
       0.060726874 -0.019083768 -0.017366061 0.023465475
000370 8d 6f 25 bd f0 f4 81 bd 29 e8 b9 bc 68 73 6d bd
       -0.040389586 -0.06345546 -0.02269371 -0.057971388
000380 f7 bb ed bd a1 df e7 b9 6c 75 13 bd a2 1f fc bd
       -0.11608117 -0.0004422637 -0.036000654 -0.12310721
000390 3e a8 85 3d b6 35 88 bd 0b 54 8e 3c cb 28 1a be
       0.0652623 -0.066508695 0.01737406 -0.15054624
0003a0 8c 93 7d 3d d3 5c 93 bd 57 77 54 bd e4 06 fa bc
       0.06190829 -0.07195439 -0.051871624 -0.030520864
0003b0 85 24 e8 bd 09 f1 b9 bc 5a fb 9a 39 f1 33 33 bd
       -0.113350905 -0.022697942 0.0002956044 -0.043750707
0003c0 56 c7 ca 3d 2f fd 5e 3d c3 cb 0d 3c 6b 23 9d bd
       0.099013016 0.054440673 0.008654538 -0.07672771
0003d0 ca 19 c9 3d a3 05 84 bd 86 0f ae bd c1 b9 e9 3d
       0.09819372 -0.064463876 -0.084990546 0.11412383
0003e0 ae 66 d4 3d 97 df 82 3d 5e 00 3b bd e0 15 50 3d
       0.10371147 0.06390303 -0.045654647 0.05080211
0003f0 4c b3 d6 3d 98 e4 dc 3d 00 35 f6 3d 49 44 d1 bc
       0.10483417 0.10785788 0.12021828 -0.025545256

lstm.bias_ih_l0 f4 [256]
000000 82 c7 dd 3b 23 c1 a0 bc 7e 63 f6 bc 8d fa 4b 3d
       0.006768168 -0.019623345 -0.030076738 0.04979949
000010 3a 73 21 3e f3 64 c9 3d a6 2b 4a bc eb 67 9e bb
       0.15766612 0.09833708 -0.012339508 -0.0048341653
000020 fb 15 67 38 6d ab e9 3c 2d 33 02 3e 5a c8 08 3e
       5.5095163e-05 0.028524125 0.12714835 0.13357678
000030 98 5f 57 3d 53 2e ca 3d 89 72 ee bd 6a e3 95 bd
       0.0525814 0.09872117 -0.116429396 -0.073187664
000040 54 10 a0 3d b7 72 0d 3c 19 0c b7 bb 99 47 d2 3d
       0.07815614 0.008633307 -0.005586159 0.102675624
000050 9f 89 34 bd 65 37 47 ba a1 b1 b8 3d 43 5e 1d 3d
       -0.04407656 -0.0007599502 0.09018255 0.038419973
000060 5c 56 3a 3d 5e 59 a5 3d 2d 1c da bc 5d 9d ea 3c
       0.045492515 0.08073686 -0.026624763 0.02863949
000070 48 4a b9 bd be 24 8e bc 25 26 cc 3d 42 ba 44 3c
       -0.09047371 -0.017351504 0.09968213 0.012007298
000080 ae ec 6a 3d f6 69 28 3d 21 02 31 bd 2b 5a e1 3c
       0.05735462 0.041116677 -0.04321492 0.027508816
000090 d8 de cb 3c 20 dc 19 3e 74 06 e2 3d 75 78 d1 3d
       0.024886534 0.15025377 0.11036387 0.102280535
0000a0 07 e5 a2 3d fa 8f c4 3d 60 8e e1 bc 10 63 1c bd
       0.0795384 0.09597774 -0.02753371 -0.03818041
0000b0 e7 9e 8f 3d da 1e 62 3c 6f e0 fe 3d 7c cc 37 3d
       0.0701273 0.013801301 0.12445151 0.044872746
0000c0 80 92 18 3e 78 d6 84 bc 1f 86 1d 3e 41 b1 63 bd
       0.14899635 -0.016215548 0.15383194 -0.055588964
0000d0 48 b4 f2 3d 3d f2 18 3d 57 90 16 bd e9 18 15 be
       0.11850792 0.03734039 -0.036758747 -0.14560284
0000e0 9f d4 55 bd 21 60 80 bd c9 7d b9 3c b5 14 46 3d
       -0.052204724 -0.06268335 0.022642987 0.04835959
0000f0 43 74 4d bd e3 78 0a 3d 29 44 6f bc a1 8d bd bb
       -0.050159704 0.033806693 -0.014603653 -0.0057847057
000100 8b b0 94 bd b4 a3 91 bd d5 66 db 3d a7 00 4d 3d
       -0.072602354 -0.07111302 0.10712973 0.05004945
000110 4e cb 03 3d 4c c9 13 3e f0 2f 20 3e dc 7c fb 3d
       0.03217631 0.14432257 0.15643287 0.122796744
000120 91 6e f3 3c 8d aa 5c bd e5 90 04 3e 8b c2 5d bd
       0.029715808 -0.053873587 0.12945898 -0.05414061
000130 b8 b3 79 3d 3f ec a0 3d 05 25 fe bd bc 50 90 ba
       0.06096241 0.0785756 -0.12409405 -0.0011010389
000140 78 9e 3c bd 8d f6 84 3d 43 ce 9c 3d a1 64 bd bb
       -0.046049565 0.06492338 0.07656529 -0.005779818
000150 51 0b ad bd e0 18 b3 bc ed 3d 81 3d 3d 9e e4 3c
       -0.08449424 -0.021862447 0.063106395 0.027907485
000160 a9 5f 54 bd 80 4c e3 bc 8f 8e b5 3c d2 76 6b 3d
       -0.05184904 -0.027746439 0.022162704 0.057486363
000170 45 b6 a8 bb 40 cf 14 3e 17 57 0f 3e c1 06 b8 3d
       -0.0051486813 0.14532185 0.13998066 0.08985663
000180 f6 93 30 bd 23 fc ee bd cd e8 ff 3c b1 00 07 3e
       -0.043109857 -0.11669185 0.031238938 0.13183858
000190 25 b5 c1 bd 88 a5 96 bd 68 5c ce 3d 72 20 00 3e
       -0.09458379 -0.07355791 0.10076219 0.12512377
0001a0 f9 43 b5 bd 01 ca 26 3c 63 2d 70 bb 0e 07 9d 3d
       -0.088508554 0.010179997 -0.0036648146 0.07667361
0001b0 a1 4c bc bc 0e d9 f5 3d a9 ca a6 3d 0f ad 0b 3e
       -0.022985758 0.120042905 0.08144123 0.13640235
0001c0 39 f2 d4 3b 12 38 c1 3d 5e 05 b7 bd b6 a3 4a bc
       0.0064986018 0.09434523 -0.089365706 -0.012368133
0001d0 1c d7 e7 3d 77 c8 00 3e 2e 5f 81 bc 31 25 92 bc
       0.11320326 0.12576471 -0.015792456 -0.01784
0001e0 3b 03 e2 3d 93 a6 05 3d 6e 17 0c 3e ea fc af 3b
       0.110357724 0.03262956 0.13680813 0.005370726
0001f0 ef fa 81 bc a0 30 47 3d b0 19 56 bd d6 f2 78 3d
       -0.015866725 0.048630357 -0.05227059 0.06077846
000200 ee 72 90 3d b0 f3 b4 bd d0 58 d5 3d ab 2f 9c 3d
       0.07053171 -0.08835542 0.1041733 0.076262794
000210 b7 ee 7c bc 2a 28 1f bc c2 08 44 3d d0 6d 89 bd
       -0.015437773 -0.009714166 0.047859915 -0.06710398
000220 32 32 f9 bb e2 4c 17 3d 98 40 77 bd c9 55 89 3d
       -0.0076048607 0.036938556 -0.060364336 0.06705815
000230 ec 94 da bd b8 09 57 bd e4 1e 14 be 7d 93 69 3d
       -0.10672936 -0.052499503 -0.14464909 0.05702542
000240 38 ac 4a bc d0 78 28 3b d7 74 1a be 88 7e c0 bc
       -0.012370162 0.0025706775 -0.15083633 -0.023497835
000250 5d ca 87 3d e6 ab df bd 23 43 b7 bd 23 de 1a be
       0.066303946 -0.10921459 -0.08948352 -0.15123801
000260 fd 6f aa 3d 1e 65 0d be 83 1d 21 3c b7 f5 30 bc
       0.08322141 -0.13808104 0.009833696 -0.0108007705
000270 d2 59 bf 3d f8 3f 0c be 1a 82 de bd 6a 24 da 3d
       0.09343304 -0.13696277 -0.10864659 0.10651477
000280 9a ea 0b be 9a fe 9f bd ac 37 9f 3d 99 61 fd 3d
       -0.13663712 -0.07812233 0.077742904 0.12372131
000290 7d a3 d2 3c 4f 0c 5f bd 14 0b 51 bd 32 cb 48 bc
       0.025712723 -0.054455098 -0.051035956 -0.012255477
0002a0 98 79 b0 3d 96 63 d3 bd 33 eb 8f 3d 54 bd c8 3d
       0.08616942 -0.10321729 0.070272826 0.098017365
0002b0 0c 9f 11 be 4e f4 eb bd a1 c0 e6 bd b4 91 1e bd
       -0.14220828 -0.11521207 -0.1126721 -0.038713172
0002c0 b6 8f c7 3d e4 1d b4 bd 5a 0a 02 3e b9 b6 48 3d
       0.097442076 -0.08794764 0.12699261 0.049002383
0002d0 8a 6a 03 be 50 4f cf bd 41 50 f8 3d df e4 47 bd
       -0.1283361 -0.101225495 0.12124682 -0.048802253
0002e0 89 2e b3 3d a3 49 05 be ae 24 d5 bd 28 31 7c 3d
       0.0874911 -0.13016371 -0.10407387 0.061570317
0002f0 87 92 ed bd 6a 48 85 3d a0 15 40 3c 90 14 e1 bd
       -0.116002135 0.065079525 0.011723906 -0.1099025
000300 b4 c8 9d bd 1d e8 92 3d 04 5e 48 3d 89 84 8c bd
       -0.07704297 0.07173178 0.048917785 -0.068612166
000310 bd b2 3b 3c 91 3c ac 3d 8e 82 23 3e 5b 7b c2 3d
       0.011456189 0.084099896 0.15967771 0.094961844
000320 c9 b0 ac bd 43 fb 71 bd 27 5c 52 bd 8b 9d 81 3c
       -0.084321566 -0.059077512 -0.051357415 0.015822193
000330 32 bc f3 bc dc f2 06 3e 88 ab dd bc 69 36 06 bc
       -0.029752824 0.13178581 -0.027059332 -0.008191683
000340 1b ce 1e 3e 91 24 31 bd 23 00 94 3d b6 7d a1 3d
       0.1550831 -0.043247763 0.072265886 0.078853056
000350 cd 94 b8 bc c2 9e d9 bb e5 77 cf bb 1c af 6a 3c
       -0.022531891 -0.00664124 -0.006331431 0.014323976
000360 0e 94 06 3d 1b db 4e 3d c4 47 a6 3d 92 73 cf bc
       0.03285604 0.050501924 0.08119157 -0.025323663
000370 fc 59 bb bd 2f 84 59 bd 27 65 a6 3d 30 f5 fc bb
       -0.091480225 -0.053104576 0.08124762 -0.0077196583
000380 d2 0f a4 3b d0 5e d0 3d 8d 9f 81 bd 54 a7 c9 bd
       0.0050067687 0.10174334 -0.0632926 -0.098463684
000390 be cb f5 bd b4 a4 5b 3d a0 6e cb 3d 89 b0 e7 3c
       -0.12001751 0.05362387 0.099332094 0.02828242
0003a0 00 20 3f 3d e1 a7 b7 bd b1 f0 c3 3c eb 4d a2 3d
       0.046661377 -0.08967567 0.023918482 0.07925018
0003b0 01 c4 08 3e f9 39 52 3d 52 ef 75 3d 55 c9 44 bc
       0.1335602 0.05132482 0.060042687 -0.012010892
0003c0 b2 75 65 3d 6c a4 3a 3d 58 43 41 3d 83 a9 13 bd
       0.056020446 0.04556696 0.047183365 -0.03605033
0003d0 f0 ae 7e bd 4b ac cc 3c 0c 68 7d 3d 0a a6 0e bc
       -0.062178552 0.0249845 0.061866805 -0.008706579
0003e0 0e de d7 3d 93 01 09 bd 2d 72 83 3d f0 c3 1d bc
       0.105404004 -0.033448767 0.06418262 -0.009629235
0003f0 6a 2e 14 bc b8 77 6b 3d cd ba 11 bc a7 b0 78 bd
       -0.009044269 0.05748722 -0.008894634 -0.060715344

lstm.bias_hh_l0 f4 [256]
000000 af 91 e3 3d 18 ba 03 bd db 9a 93 bd aa 51 ba 3d
       0.11111771 -0.032159895 -0.07207271 0.090976074
000010 3a d7 da 3d fe 10 20 bd e6 0e b9 3d 0c dd 79 3d
       0.106855825 -0.039078705 0.09036045 0.061001822
000020 f9 db af bb 10 bf b5 3d 97 34 64 ba 56 2e 29 3c
       -0.005366799 0.08874333 -0.0008705346 0.010325989
000030 30 88 53 3d 1c c6 22 ba 5e 8c 0a be f6 fd 88 bd
       0.05164355 -0.000620933 -0.13530108 -0.06689064
000040 73 96 14 3e 28 5d 57 3c a4 19 12 bd 70 5a 3a bd
       0.14510517 0.013144769 -0.035668984 -0.045496404
000050 a6 92 eb bc 9e f2 dc bc df ca bd bd f1 d1 e8 3d
       -0.02875645 -0.026971158 -0.0926721 0.11368168
000060 85 78 19 bd a2 43 86 3d 44 d2 51 3d 67 06 78 bc
       -0.037468452 0.06555869 0.051225916 -0.015138245
000070 66 17 e5 bd fe b9 af bc de 03 5a bd a6 f1 eb 3d
       -0.111861035 -0.021450993 -0.053226344 0.115207
000080 0f 85 a9 3d 4f a7 96 bc 4f 84 95 3d f9 72 00 3e
       0.08277332 -0.018390326 0.073006265 0.12543859
000090 65 12 10 3d 99 a8 8b bd 77 5e a1 3c 06 f8 03 be
       0.035173792 -0.06819267 0.019698365 -0.12887582
0000a0 45 8a cd 3d b9 81 02 bd 47 6b 54 bd 74 d5 84 bd
       0.100361384 -0.031861994 -0.05186012 -0.064860255
0000b0 ff ca 29 bd db 85 13 3e e0 c3 44 bd da e0 17 3d
       -0.041453358 0.1440653 -0.048038363 0.03707967
0000c0 18 f7 a8 bd a9 bf 00 3d 04 1d 8e 3c 9d 25 f5 3d
       -0.082502544 0.03143278 0.01734782 0.11970065
0000d0 0b 9c 1c bd 0c c0 42 3d 8e ee 63 bc 05 e2 1c bd
       -0.03823475 0.04754643 -0.013911856 -0.038301487
0000e0 c4 0a 88 3d 93 97 0c bd 99 4d 07 3e b7 7f 12 bc
       0.066426784 -0.03432424 0.13213195 -0.008941582
0000f0 38 7c 6a bd 37 60 d7 3c af af ee 3d 69 94 b2 bd
       -0.05724737 0.026290996 0.11654603 -0.08719713
000100 48 f5 2d 3d 9a 0a 87 3d 1d fa f5 3c c9 51 b7 bd
       0.042470247 0.06593819 0.03002649 -0.08951146
000110 1f 3a 6d 3d 8c a9 c2 bc 45 54 6a 3a cf 85 7b bd
       0.057916757 -0.023762487 0.0008938949 -0.061406907
000120 c6 15 82 bd 1b af 7c 3d d4 bc 9e 3d 90 f0 65 bd
       -0.06351809 0.06169043 0.0775086 -0.05613762
000130 70 f5 1c 3e 41 c0 fa 3d ee e2 94 3d 4a f4 01 3e
       0.15328002 0.12243701 0.07269846 0.12690845
000140 e5 a7 03 3d 3c ff 97 bd 1c b1 cf bd 4f ff 10 bd
       0.03214254 -0.07421729 -0.10141203 -0.03539973
000150 74 88 0b 3e f0 41 a5 bc f9 b3 a1 bc bb 4e 09 3e
       0.13626271 -0.020173043 -0.019739138 0.1340894
000160 78 58 d4 bd d8 cd fd 3c 99 8c 72 3c 23 55 18 b9
       -0.103684366 0.030981943 0.014804029 -0.00014527566
000170 df 0d 6a bd 49 d6 42 bd c0 39 2c 3c 1a bf c8 39
       -0.057142135 -0.04756764 0.010511816 0.00038289354
000180 b1 74 01 3e 56 5a ea bd ed 7d 94 3d 0d a9 d7 3d
       0.1264217 -0.114430115 0.07250581 0.10530291
000190 f5 ba ab bd cd 72 d4 3c c5 ba 05 3d 70 66 b6 3d
       -0.083852686 0.025933648 0.03264882 0.08906257
0001a0 0a 0d 12 bb 28 49 24 3d eb 1e ca 3d f0 2e ba bc
       -0.0022285604 0.04010883 0.098691784 -0.02272746
0001b0 af 75 17 bd 23 d1 e1 bc 67 34 38 bd f3 59 e0 bd
       -0.036977466 -0.027565544 -0.04497185 -0.109546565
0001c0 9f 4a 12 3d 49 b9 96 3c 52 0b f1 3d 90 0a 2e bd
       0.035715695 0.018398898 0.11769737 -0.042490542
0001d0 d2 da d2 3d 19 e2 a2 3c be 2c ee bd be 92 2a bd
       0.10295643 0.019883202 -0.11629628 -0.04164385
0001e0 15 bc ee bc 6a dc e6 3d 14 76 a4 3d fd dc cd 3d
       -0.029142419 0.112725094 0.08030334 0.10051916
0001f0 20 3d 0a 3e 7a dc b8 bd ca 06 aa 3d 20 12 93 3d
       0.1349988 -0.090264276 0.08302076 0.071811914
000200 b1 a2 fa 3d fd 13 c5 3b 58 ad 4e 3d b5 e8 76 bd
       0.12238062 0.0060143457 0.050458282 -0.06028052
000210 b3 6f b7 bd 33 49 05 3e ac 33 ee bd 63 76 08 3e
       -0.08956852 0.13016205 -0.116309494 0.13326411
000220 36 6e c0 bd 42 d8 8b bb 6a 5e db bd 6c 80 15 be
       -0.09396021 -0.0042677233 -0.107113674 -0.1459977
000230 e0 21 59 b9 b7 1e 43 3d bb 2a 6e bc 4f 9c 87 bd
       -0.00020707352 0.047636714 -0.014536555 -0.066216104
000240 f2 24 3c 3d cd b7 cb bd 2a 88 35 3d 21 5d bf bd
       0.04593367 -0.099471666 0.04431931 -0.09343935
000250 e6 18 c9 3d cc af 89 3d 3f 85 b5 bd 63 9d 0b be
       0.09819202 0.06722984 -0.08863305 -0.13634257
000260 8e 54 27 bb 69 f9 a1 3d 7e c3 0e bd 7e 59 54 3d
       -0.0025532576 0.07908899 -0.034854405 0.05184316
000270 7f 9b f4 bc e2 32 16 be ca 3d 08 bc f0 d8 1b 3e
       -0.029859303 -0.14667848 -0.008315513 0.15219474
000280 2a a5 b4 3d 88 90 37 3d 59 6f 68 bd 20 26 1e 3c
       0.08820565 0.04481557 -0.056746814 0.009652644
000290 b1 17 09 bd 09 33 1b 3d 77 49 89 3d 34 0a cf 3d
       -0.03346986 0.037890468 0.067034654 0.10109368
0002a0 48 9c 09 3c cd 03 36 3a 02 af d8 3d a8 67 3b bd
       0.008399077 0.00069433154 0.10580255 -0.04575315
0002b0 3c 72 20 be 2e 14 56 bd 4b d6 97 3d da f5 e2 3d
       -0.15668577 -0.05226534 0.0741392 0.11082049
0002c0 8d c9 69 bd e2 8a fd bb 75 e4 e9 3d 9c 73 06 be
       -0.05707698 -0.0077375034 0.11420528 -0.13130039
0002d0 cc 62 5d bc ee 09 b1 bd aa 31 db 3c 03 ff f1 bc
       -0.013512325 -0.08644472 0.02675708 -0.029540544
0002e0 83 51 1d 3d 67 f8 44 bd d3 bc a9 bd f4 74 8f bd
       0.038407814 -0.048088457 -0.082879685 -0.07004729
0002f0 1d cd 53 3b 8b dc c7 3d 16 6c c3 bc d8 cb 8c bd
       0.0032318302 0.09758862 -0.02385525 -0.068748176
000300 50 cd b0 bd 81 90 a5 3d e2 0b 2d 3d 1b 02 e4 3d
       -0.0863291 0.080842026 0.04224766 0.11133214
000310 02 3a 0b 3e 3e f2 ae 3d e5 52 88 bd ff 30 d8 3d
       0.13596347 0.08542298 -0.06656436 0.1055622
000320 a7 42 f4 bd 2a 40 ac 3d a7 c1 86 bd 04 06 23 bd
       -0.119267754 0.08410676 -0.06579905 -0.03980066
000330 dd 42 5c bc 75 a9 1e 3e b2 91 53 3d 99 c8 f0 bb
       -0.013443676 0.1549433 0.051652618 -0.007348132
000340 4c c7 c2 3d 63 fa d9 3c b9 bd e6 3d 65 2a ee bc
       0.09510669 0.026608652 0.112666555 -0.02907295
000350 0d 3b 9d bc 9e 2e 05 bc 5f 28 b3 bd fa 33 fe bc
       -0.019193197 -0.00812879 -0.087479346 -0.031030644
000360 91 3e 06 bd 46 1a d0 3d 7f cb d1 3d e1 4a 1a bd
       -0.03277451 0.10161261 0.10243892 -0.037669066
000370 96 c5 83 3d 9c 55 b6 bd 45 d6 da 3d 6f 06 0a bd
       0.06434171 -0.089030474 0.106854 -0.03369754
000380 8c e8 22 3c 1c 28 ad 3c de c1 13 3e 07 e8 7f bd
       0.009943139 0.02113729 0.14429423 -0.062477138
000390 72 1f a6 3b 3a 26 9a 3d d0 39 af 3d 88 d5 8a 3d
       0.0050696665 0.075268224 0.08555949 0.06779009
0003a0 72 07 91 bd 88 b9 91 bd 76 5b 1c 3e d0 7d 43 bd
       -0.07081498 -0.071154654 0.15269265 -0.047727406
0003b0 6f 6e 65 bd 97 5c 94 3d 99 78 0f 3d e0 49 00 3e
       -0.05601352 0.072442226 0.03502712 0.12528181
0003c0 d9 58 02 3e aa cc 65 bb aa 54 bf bc d1 3d f7 3d
       0.12729205 -0.0035064616 -0.0233558 0.120723374
0003d0 8a 83 2a b9 48 04 22 3d f3 77 fb 3d 61 48 82 bd
       -0.00016261465 0.039554864 0.12278738 -0.063614614
0003e0 00 00 f8 bd ae 01 c0 bd ed 2f cb 3b 0f e8 d9 bd
       -0.12109375 -0.093753204 0.0062007816 -0.10639965
0003f0 25 ad 92 3b 1b ba d6 3d ea 4f 2e bc 4f 40 ed bc
       0.004476207 0.104847156 -0.01063917 -0.028961329

fc.weight f4 [1, 64]
000000 73 fe f5 bd 19 c1 b6 bc d3 33 94 3d 63 c9 fe 3d
       -0.12011423 -0.022308873 0.07236447 0.12440755
000010 96 c8 2e 3d 7b a6 06 be d5 83 c0 3d 55 59 98 bd
       0.042671762 -0.13149445 0.09400145 -0.07438914
000020 34 23 b5 bd db b7 3d bd c2 f5 d0 3c 9f 42 b5 3d
       -0.08844605 -0.046317916 0.025507811 0.088505976
000030 dd 29 16 3e ba bb 1f 3e 9f 22 63 3d 30 74 70 bd
       0.14664407 0.15598956 0.05545294 -0.058704555
000040 f7 14 ea 3d 25 da 88 3d 5a d9 bb 3d 5b 17 91 3c
       0.1142978 0.06682233 0.09172316 0.017711332
000050 26 b5 cb bd 9e 86 e2 3d 23 36 1f 3e 61 8a 43 3d
       -0.09946661 0.110608324 0.15547995 0.04773939
000060 1b 2c 20 3c 43 39 41 3d 5d 41 0f be 26 ab c8 3d
       0.009776141 0.04717375 -0.13989778 0.09798269
000070 10 c7 2c 3c 6d a5 d9 3d 6f 84 9b 3d e1 94 f7 bd
       0.010545507 0.106272556 0.07593619 -0.12088943
000080 41 a1 00 3e 55 e4 bc 3d 8b 76 d8 3d 2a 03 45 bc
       0.12561513 0.092232384 0.10569485 -0.01202468
000090 2b 73 4c bd a1 e0 c9 3d b1 01 b1 3d 55 23 9a bd
       -0.04991452 0.09857298 0.08642901 -0.0752627
0000a0 4d 54 a9 3b 64 f1 ac bd e2 dc e5 bd d6 33 d0 bd
       0.00516752 -0.08444479 -0.11223771 -0.10166137
0000b0 e4 5d 28 3d 55 30 18 3d 21 62 8f 3d 3e a1 03 be
       0.041105166 0.037155468 0.070011385 -0.12854478
0000c0 2e a9 05 be 9e 41 b6 3d 49 24 82 bd b3 5d 1d 3e
       -0.13052818 0.08899234 -0.06354577 0.15367775
0000d0 d0 e2 61 3d eb da d0 3d 18 f1 24 bc 9c 93 1e bd
       0.055147946 0.10198005 -0.010067247 -0.03871499
0000e0 bc c2 9b 3d df f7 ec 3d c4 51 06 3e 52 b0 e2 bd
       0.07605502 0.11570715 0.13117129 -0.11068787
0000f0 89 b5 43 3d 38 c4 ad bd fe 95 19 be 46 04 10 bd
       0.047780547 -0.084846914 -0.14998624 -0.035160325
